lora_detr_model/adapter_model.safetensors (safetensors, 547068 bytes, 10 tensors)

base_model.model.bbox_predictor.layers.0.bias f4 [256]
0	0xbd807f4d	-0.06274281
1	0x3e2055bb	0.15657704
2	0xbe155302	-0.14582446
3	0x3df91b03	0.12163355
4	0xbdab4fcc	-0.083648294
5	0xbe9c93ef	-0.30581614
6	0xbd71c42e	-0.059024982
7	0xbd46a336	-0.048495494
8	0x3f159b3b	0.5843999
9	0xbe401dbf	-0.18761347
10	0x3f113d18	0.56733847
11	0xbdaff3cc	-0.085914224
12	0x3e8bf0b9	0.27332094
13	0xbe35335b	-0.17695372
14	0x3e8beb72	0.27328068
15	0x3eb628c8	0.3557799
16	0x3eaa6c58	0.33285785
17	0xbdf90ac4	-0.121602565
18	0xbdff8377	-0.12476247
19	0x3d8fd07e	0.070221886
20	0x3e336a49	0.17521013
21	0xbd6846d0	-0.056708157
22	0x3d7dd5d7	0.06197151
23	0xbed0d650	-0.40788507
24	0x3e7dd2ba	0.24787417
25	0xbd749226	-0.05970969
26	0x3e23ecc3	0.16008286
27	0x3e8a30b2	0.26990277
28	0x3df7103e	0.12063645
29	0x3eab3ad7	0.3344333
30	0x3e103965	0.14084394
31	0xbdb4310b	-0.08798417
32	0x3e049561	0.12947609
33	0x3c9a281e	0.018817957
34	0x3e2f4cb0	0.17119098
35	0x3d0ea1ea	0.034822382
36	0x3def4ddc	0.11684772
37	0x3ef950df	0.48694512
38	0x3c00bad5	0.007857044
39	0x3e8718de	0.2638616
40	0x3e44e85b	0.19229262
41	0x3ec8a75c	0.39190185
42	0x3e3c4a7c	0.18387789
43	0xbd1baf2f	-0.038008865
44	0xbce7aa80	-0.028279543
45	0xbd8f830d	-0.07007418
46	0x3e400e64	0.1875549
47	0xbdfbc4b0	-0.122933745
48	0x3e2a2699	0.16616286
49	0xbde04f2c	-0.10952601
50	0x3e42d473	0.19026355
51	0x3e5ad952	0.21371964
52	0x3de9fb26	0.11424856
53	0x3d7befe9	0.061508093
54	0x3e543d7a	0.20726576
55	0x3cb979fc	0.022641174
56	0x3e4412bf	0.19147776
57	0x3e4a1b4c	0.19736975
58	0x3e57cd90	0.2107451
59	0xbcd43fba	-0.025909293
60	0x3df1cc18	0.11806506
61	0x3eed909a	0.46399385
62	0xbdd873d4	-0.105689675
63	0xbd8a50ae	-0.0675367
64	0x3d00818a	0.031373538
65	0x3e0272db	0.12739126
66	0xbdf11557	-0.117716484
67	0xbdb63316	-0.088964626
68	0x3e9ad99e	0.30244154
69	0x3f19fe8a	0.6015402
70	0xbea9750c	-0.33097112
71	0x3e1bc248	0.15210831
72	0xbe49275d	-0.19643922
73	0x3dd1c1ff	0.1024208
74	0x3eaac4a4	0.3335315
75	0x3eb95ba2	0.36202723
76	0x3ea68ccf	0.32529303
77	0x3dcfaabe	0.10139988
78	0x3e214b07	0.15751277
79	0x3d59364a	0.05303029
80	0x3da4b834	0.080429465
81	0x3e271813	0.16317777
82	0x3e89008d	0.26758233
83	0xbdbf61e2	-0.093448415
84	0x3e6c9b8a	0.23106208
85	0xbdc88267	-0.09790497
86	0xbecd8fd7	-0.40148804
87	0x3dad0a03	0.08449175
88	0xbdcd193c	-0.10014579
89	0x3eb73c91	0.35788396
90	0x3e53aefb	0.20672219
91	0x3e2f385d	0.17111345
92	0x3e58300d	0.2111208
93	0x3e1c4ae3	0.15262942
94	0x3ea13315	0.31484285
95	0xbd80fa4c	-0.0629774
96	0xbca5fdbe	-0.020262595
97	0x3d5c0825	0.053718705
98	0x3c2a2602	0.010385038
99	0x3d10f33a	0.03538821
100	0x3e613f68	0.21996844
101	0x3e24109d	0.16021962
102	0x3e24cf9e	0.16094825
103	0x3e96b17a	0.2943228
104	0xbcd1a6e0	-0.025592268
105	0x3df673d0	0.12033808
106	0x3ed09dde	0.40745443
107	0xbd2004bf	-0.039067026
108	0x3eb46fcb	0.3524154
109	0x3e5ab15d	0.21356721
110	0x3dfb914b	0.12283572
111	0x3e832bb7	0.2561929
112	0x3e280a85	0.16410263
113	0x3e3d53f4	0.18489057
114	0xbd1d10d0	-0.03834611
115	0x3e505622	0.20345357
116	0xbe02949c	-0.12752002
117	0x3d25c450	0.04047042
118	0x3e81c5d7	0.25346252
119	0x3d8387e9	0.06422407
120	0x3d92912f	0.07156598
121	0xbd683545	-0.056691427
122	0x3e9a29de	0.30110067
123	0x3e5abb0c	0.21360415
124	0x3db830b7	0.089936666
125	0x3e478225	0.1948324
126	0x3e407e5e	0.18798205
127	0xbc8fe946	-0.017567288
128	0x3e82357e	0.25431436
129	0x3e76ff29	0.24120773
130	0xbd304327	-0.04303279
131	0xbde09b53	-0.10967126
132	0x3eba1ec0	0.36351585
133	0xbe4a6933	-0.19766693
134	0xbe4b9c81	-0.1988392
135	0xbc0d80c0	-0.008636653
136	0x3dc3553f	0.09537744
137	0x3e82eb28	0.25570035
138	0x3e81df99	0.25365904
139	0x3e9782d7	0.2959201
140	0x3c9743c8	0.018464938
141	0xbded1735	-0.11576692
142	0x3db3e586	0.087840125
143	0x3dda36ba	0.106549695
144	0x3e5985a6	0.21242389
145	0xbecd3a92	-0.40083748
146	0x3e1589e7	0.14603387
147	0x3e60c665	0.21950682
148	0x3e181d35	0.14854892
149	0x3e1a491a	0.15066949
150	0xbee2da42	-0.44307142
151	0x3e904bc9	0.2818282
152	0x3eb86a89	0.3601878
153	0xbe0fe68c	-0.1405279
154	0x3e4159bd	0.18881889
155	0x3f0891af	0.53347296
156	0x3e024531	0.12721707
157	0xbd95503f	-0.07290696
158	0xbe4b86db	-0.19875662
159	0x3e4eced7	0.2019609
160	0xbdb4b9bb	-0.08824488
161	0x3dd12fc6	0.1021419
162	0xbd7122ee	-0.058871202
163	0x3e12260f	0.1427233
164	0xbd83840e	-0.06421672
165	0x3e804b59	0.25057486
166	0xbd863db7	-0.0655474
167	0x3b9427b8	0.0045213364
168	0x3e97529a	0.29555207
169	0x3dc933c9	0.0982433
170	0x3e91942d	0.28433362
171	0x3dbe0dce	0.09279977
172	0x3df34c9d	0.11879847
173	0xbd8ef983	-0.06981184
174	0x3dfde6c7	0.12397533
175	0x3ea6eda4	0.3260318
176	0x3c9ec640	0.019381642
177	0x3e3210dd	0.17389245
178	0x3c77c61a	0.015122915
179	0x3e31bf21	0.17358066
180	0xbde0ef4d	-0.10983143
181	0xbdcc267a	-0.09968276
182	0x3e6313f9	0.22175588
183	0x3e5239cf	0.20529865
184	0x3de6c18e	0.112673864
185	0x3c8dc668	0.017306522
186	0x3e8b3079	0.2718542
187	0x3dcfe54f	0.10151159
188	0xbdaf53b1	-0.08560885
189	0x3dbca5a5	0.09211282
190	0xbdd5a120	-0.10431123
191	0x3e55cc6f	0.20878766
192	0x3cd263a3	0.025682276
193	0xbdbce485	-0.09223274
194	0x3e656ed9	0.22405566
195	0xbbcc8ca1	-0.00624235
196	0x3d88c9ef	0.06679141
197	0x3e7768c0	0.24161053
198	0x3c54d8e3	0.012991163
199	0xbab23ea2	-0.0013598988
200	0x3ef870a1	0.4852343
201	0x3e0ef40d	0.13960285
202	0x3e620ee9	0.22076
203	0x3e2cc41e	0.16871688
204	0xbd8f63da	-0.07001467
205	0x3e2f0378	0.17091167
206	0x3d812f81	0.06307889
207	0xbd5d38ab	-0.05400912
208	0xbe96d02b	-0.29455695
209	0xbe3269aa	-0.1742312
210	0xbc21dd8c	-0.009879481
211	0xbda480c2	-0.08032371
212	0xbd914efe	-0.07095145
213	0xbd2dd835	-0.04244252
214	0x3e98b7c0	0.2982769
215	0xbd969bd9	-0.07353944
216	0x3d3c6dd6	0.046003185
217	0x3e231bd7	0.15928589
218	0x3e8015cd	0.25016633
219	0x3cd371e6	0.025811147
220	0x3e369583	0.17830472
221	0xbda236b7	-0.07920592
222	0x3e4ef08a	0.20208946
223	0x3e957a1b	0.29194722
224	0x3ea283cb	0.31741175
225	0xbb887060	-0.004163787
226	0xbe1d2555	-0.15346272
227	0x3d09f86f	0.03368419
228	0x3efbe369	0.49196938
229	0x3eaa14e9	0.33219078
230	0x3e95ab6b	0.29232344
231	0x3d4c8ff4	0.049941972
232	0x3df337b7	0.11875861
233	0x3e983f33	0.29735717
234	0xbca030ef	-0.019554583
235	0x3ed89e5b	0.42308316
236	0xbe879a58	-0.26484942
237	0x3e7402d9	0.23829211
238	0x3db8cef3	0.090238474
239	0x3e78de4c	0.2430355
240	0xbde3b8a2	-0.111192
241	0x3e46cda2	0.1941438
242	0x3d07f6b5	0.033194263
243	0x3dd915b3	0.10599842
244	0x3e0e5475	0.13899405
245	0x3e7054fb	0.23469917
246	0x3ebddf3e	0.37084383
247	0x3d381979	0.044946168
248	0xbe9ed241	-0.31019786
249	0xbbf71c26	-0.0075411974
250	0x3e2bdd2a	0.16783586
251	0xbc1f81a7	-0.009735501
252	0x3e8e3d96	0.2778136
253	0xbd870c43	-0.065941356
254	0xbd0a2afa	-0.033732392
255	0x3d9a6b1c	0.07539961

base_model.model.bbox_predictor.layers.0.weight f4 [256, 256]
0	0x3bc37321	0.005964652
1	0xbd07f6e2	-0.03319443
2	0x3ddd8a0a	0.108173445
3	0x3da8fe95	0.08251683
4	0x3e4deb00	0.20109177
5	0x3d987683	0.07444479
6	0xbd374a04	-0.04474832
7	0xbdc34eb0	-0.09536493
8	0x3b35e064	0.0027752155
9	0x3c7c2351	0.015389279
10	0x3e422333	0.1895874
11	0xbe123926	-0.14279613
12	0xbbbfffc0	-0.005859345
13	0xbdaef3ad	-0.08542571
14	0x3e4acbd7	0.19804321
15	0x3d4ac97b	0.049508553
16	0xbe22735b	-0.15864317
17	0x3d5961db	0.053071838
18	0x3d84a5e4	0.064769536
19	0xbce84363	-0.028352445
20	0x3cc1bf5f	0.023650823
21	0xbdfcdedf	-0.12347197
22	0x3d366d7d	0.04453801
23	0xbd13ed45	-0.03611495
24	0xbc3eab4c	-0.01163752
25	0xbdcd90ef	-0.100374095
26	0xbcc864b4	-0.024462081
27	0x3d1173e7	0.035510924
28	0xbd544084	-0.05181934
29	0x3d5cfd95	0.053952772
30	0xbdef45b8	-0.1168322
31	0xbe864b87	-0.26229498
32	0x3e0a91b3	0.13532142
33	0xbe204e83	-0.1565495
34	0x3da1d5b3	0.07902088
35	0xbdb255bf	-0.08707761
36	0xbcb9f258	-0.022698566
37	0x3d148966	0.036263846
38	0xbdee9566	-0.11649589
39	0x3d555432	0.052082248
40	0xbebe188c	-0.37128103
41	0x3e0fb94c	0.14035529
42	0x3cc178dd	0.023617202
43	0xbd6faedb	-0.058516365
44	0x3debcf54	0.11514154
45	0xbe42fcd5	-0.1904176
46	0x3b489016	0.003060346
47	0xbcb615b6	-0.02222715
48	0xbe3bc3ce	-0.18336412
49	0xbdb82c9f	-0.08992886
50	0xbce8c401	-0.028413774
51	0xbcb95282	-0.02262235
52	0xbdf242fe	-0.11829184
53	0xbdf9b3ca	-0.12192495
54	0xbe70f2fd	-0.23530193
55	0x3d0aff73	0.03393502
56	0x3bf46563	0.0074583753
57	0xbde2d7d8	-0.11076325
58	0x3da4a9e8	0.080402195
59	0xbdc2f178	-0.09518713
60	0xbe1d1427	-0.15339719
61	0x3d8d2a63	0.0689285
62	0x3d6bcf12	0.057570525
63	0x3e38bf4f	0.18041728
64	0xbc988bbc	-0.018621318
65	0xbda15541	-0.07877589
66	0x3e3f7753	0.18697862
67	0xbc89feb6	-0.016845088
68	0xbe7a19dc	-0.24423927
69	0xbde08fdf	-0.10964941
70	0x3e10d7d4	0.14144832
71	0x3cd74d7f	0.02628207
72	0xbd5760a1	-0.052582387
73	0xbc5097cf	-0.0127315065
74	0xbd6faca3	-0.05851425
75	0xb8aad215	-8.1453625e-05
76	0xbd6a0e73	-0.057142686
77	0xbda28959	-0.07936353
78	0xbcbf4471	-0.023348065
79	0xbd01f688	-0.03172925
80	0xbdd4a485	-0.10382942
81	0x3d439b89	0.04775575
82	0xbd73313f	-0.059373137
83	0xbe844730	-0.25835562
84	0x3b35a9cb	0.0027719613
85	0x3e08ab22	0.13346532
86	0x3d04bd07	0.032406833
87	0x3d516d78	0.05112979
88	0x3ddb849f	0.10718655
89	0x3e86e0d8	0.26343417
90	0xbda9f9e3	-0.08299615
91	0x3e0ff097	0.14056621
92	0xbc88d76b	-0.016704282
93	0x3d570086	0.052490734
94	0x3e6dcdd3	0.23223047
95	0x3ba396f8	0.004992362
96	0x3db7bad3	0.08971181
97	0x3cbe9718	0.023265406
98	0xbde6b351	-0.11264671
99	0x3d05ca6f	0.03266376
100	0xbd67b920	-0.056573033
101	0xbe1d897a	-0.15384474
102	0xbd697eef	-0.05700582
103	0xbd6f7395	-0.058459837
104	0x3d77cdf1	0.060499135
105	0x3d4e7893	0.050407957
106	0xbda276ac	-0.07932791
107	0x3d89039e	0.06690143
108	0x3d18dcda	0.037319995
109	0xbdff0614	-0.12452331
110	0xbe5002aa	-0.20313516
111	0x3d040701	0.032233242
112	0x3d876d66	0.06612663
113	0x3d9a4dab	0.07534345
114	0xbd6b6657	-0.057470646
115	0x3dc41591	0.09574426
116	0x3e03957a	0.1284999
117	0x3d935c70	0.071953654
118	0x3da64e65	0.08120421
119	0x3d0491cb	0.0323656
120	0x3d6e74dd	0.05821692
121	0x3df6eee2	0.12057282
122	0xbd84febe	-0.06493901
123	0x3db82688	0.08991724
124	0xbcd20535	-0.025637249
125	0x3d8f5b9b	0.06999894
126	0xbc243328	-0.010021962
127	0x3d3d69e0	0.04624355
128	0x3e4817fc	0.195404
129	0xbbf77c6d	-0.0075526745
130	0x3e0de9be	0.13858697
131	0xbd9e37ed	-0.07725511
132	0xbdfdb402	-0.123878494
133	0x3e084588	0.13307774
134	0xbe25164d	-0.16121788
135	0x3d89586d	0.06706319
136	0x3e702df3	0.23455028
137	0x3c72703c	0.014797267
138	0xbd0845a7	-0.03326955
139	0x3d441997	0.047875967
140	0x3dc6deef	0.0971049
141	0x3e476eb6	0.19475827
142	0x3d1b6441	0.037937406
143	0xbde5e507	-0.11225324
144	0xbe43893f	-0.19095324
145	0xbe042c84	-0.12907606
146	0x3ddd8870	0.10817039
147	0xbe266dab	-0.16252773
148	0x3e08ffe2	0.13378862
149	0x3b5d5dc8	0.0033777822
150	0x3d13f3ce	0.036121182
151	0x3d979a56	0.07402484
152	0xbd5754a5	-0.052570958
153	0x3e39976d	0.1812417
154	0x3e0aa698	0.13540113
155	0x3d40272f	0.04691237
156	0xbe43e4ee	-0.19130298
157	0x3dbaa569	0.09113581
158	0x3c207432	0.009793328
159	0xbe1c8353	-0.15284471
160	0x3e0c202d	0.13684149
161	0xbae6fdd5	-0.0017623255
162	0xbd904226	-0.07043867
163	0x3ccde6b1	0.025134416
164	0xbd2ca098	-0.04214534
165	0x3d8a08ab	0.067399345
166	0x3d806a26	0.06270246
167	0xbc27ed09	-0.010249385
168	0xbcd8835a	-0.02642982
169	0xbe76484e	-0.2405102
170	0xbe435d92	-0.19078663
171	0x3dfcf058	0.123505294
172	0x3dfa2730	0.12214506
173	0xbdee9d9a	-0.11651154
174	0xbdd670d6	-0.104707405
175	0x3d41441d	0.0471841
176	0x3c769098	0.015049122
177	0xbd1c920f	-0.03822523
178	0x3c28b2e6	0.010296559
179	0x3c71c74e	0.014756991
180	0xbd09b7bd	-0.033622492
181	0xbda492be	-0.08035801
182	0x3dbd178e	0.09233008
183	0xbdb4fe83	-0.08837607
184	0xbd80d94c	-0.06291446
185	0xbdd9daca	-0.10637434
186	0x3ce1a803	0.027545935
187	0xbca7bec7	-0.020476712
188	0xbb502cd0	-0.0031764992
189	0xbdeb2c74	-0.11483088
190	0x3df82b94	0.12117687
191	0x3c1c6fe9	0.009548166
192	0x3dfc4018	0.123169124
193	0x3d241d34	0.040066913
194	0xbd53c707	-0.05170348
195	0x3e0be329	0.13660873
196	0xbca8d659	-0.020610021
197	0x3d80dfb1	0.06292666
198	0x3d49cdef	0.04926866
199	0xbbed477f	-0.007241189
200	0x3d4edda2	0.050504334
201	0xbd3619f8	-0.04445836
202	0xbdc76b1c	-0.09737226
203	0xbdd2b90d	-0.10289202
204	0xbb6c6e46	-0.003607647
205	0x3dee27af	0.11628663
206	0x3e4ed580	0.20198631
207	0xbcbe6606	-0.023242008
208	0xbd6587d7	-0.05603775
209	0xbd2f633e	-0.042819254
210	0xbdb6c384	-0.089240104
211	0xbd65821e	-0.056032293
212	0xbd6c3c60	-0.057674766
213	0xbe4bf7a2	-0.19918683
214	0xbe02776c	-0.12740868
215	0xbd9d96c6	-0.076947734
216	0x3c901413	0.017587697
217	0x3cd10169	0.025513368
218	0x3d9f91bb	0.07791468
219	0xbde81cd1	-0.11333621
220	0xbc27e018	-0.010246299
221	0xbbe46fc5	-0.006971332
222	0xbd3b7514	-0.04576595
223	0x3d50aee9	0.050948057
224	0x3d1de5d0	0.038549244
225	0x3c425c16	0.011862775
226	0xbdba8dd5	-0.091090836
227	0x3e93f098	0.28894496
228	0xbe281f44	-0.16418177
229	0x3d9b6b5c	0.075888366
230	0x3c94af40	0.018149972
231	0xbd14cea9	-0.0363299
232	0xbca3847c	-0.019960634
233	0x3e53feff	0.20702742
234	0xbcac9ffe	-0.021072384
235	0x3d22201a	0.039581396
236	0xbc72baf6	-0.014815083
237	0x3da78b31	0.081808455
238	0xbdd5722f	-0.104221694
239	0x3ccb9232	0.024849985
240	0x3da84580	0.08216381
241	0x3def9f71	0.11700333
242	0x3d36f634	0.04466839
243	0x3e200d38	0.15630043
244	0xbd97569b	-0.073895656
245	0xba89cad4	-0.0010512718
246	0xbdab8c6d	-0.083763935
247	0x3ce0978a	0.02741601
248	0xbce7acbb	-0.028280606
249	0xbe3b34c3	-0.18281846
250	0x3c8cfffe	0.01721191
251	0xbe0f18b7	-0.13974272
252	0x3d84bb4f	0.06481039
253	0x3db1a5fa	0.08674236
254	0xbdbf1109	-0.09329421
255	0xbe100bee	-0.14067051

base_model.model.bbox_predictor.layers.1.bias f4 [256]
0	0x3c959dad	0.018263662
1	0xbf0f3fa4	-0.5595648
2	0x3e5fe004	0.21862799
3	0x3dfd2291	0.12360109
4	0x3c95620a	0.018235225
5	0x3ddae600	0.106884
6	0xba3d944b	-0.0007231875
7	0x3e0c04c4	0.13673693
8	0xbd33b520	-0.043873906
9	0x3ebf27c4	0.37335026
10	0xbc0e9e7e	-0.00870478
11	0x3d8ad24e	0.06778394
12	0x3d36c155	0.04461797
13	0xbece4b1e	-0.40291685
14	0x3e391b3c	0.18076795
15	0x3e5d9295	0.21637948
16	0xbe5e4867	-0.21707307
17	0xbd41162b	-0.04714028
18	0x3e818a99	0.25301054
19	0x3bd44a22	0.006478564
20	0x3d4fc787	0.050727393
21	0x3ea0d1a9	0.31409958
22	0x3df3c79f	0.11903309
23	0x3d92897a	0.07155128
24	0x3eb194c4	0.34683812
25	0x3e905418	0.28189158
26	0xbbb895aa	-0.0056330757
27	0x3e8d5800	0.276062
28	0x3e174fe1	0.14776565
29	0xbcecd328	-0.02890928
30	0x3dfc940b	0.123329245
31	0x3e134812	0.14382961
32	0x3cf0e6b8	0.02940689
33	0x3e99d9aa	0.30048877
34	0xbd96495a	-0.073382095
35	0x3e7aabdb	0.2447962
36	0xbde665ba	-0.112498716
37	0xbe45844b	-0.19288747
38	0x3e01f975	0.12692817
39	0x3e11e7c6	0.14248571
40	0x3dae5e58	0.085140884
41	0x3e81a8af	0.25324008
42	0x3d1f6c89	0.038921867
43	0x3c9851f8	0.018593773
44	0xba82f670	-0.0009991657
45	0xbcc64d26	-0.02420671
46	0x3e611a12	0.21982601
47	0x3e63433f	0.22193621
48	0x3ea2bc0f	0.31784102
49	0x3ddc68d4	0.10762182
50	0x3e29d19b	0.16583864
51	0x3dbcd801	0.09220887
52	0xbd15ec5b	-0.03660236
53	0xbd379ff9	-0.044830296
54	0x3da3127e	0.079625115
55	0x3cdb4362	0.026765529
56	0x3d80b942	0.06285335
57	0xbdc539ad	-0.096301414
58	0x3e6be06d	0.2303483
59	0x3ccdd9df	0.025128303
60	0x3de799e5	0.1130865
61	0xbda78fa9	-0.08181698
62	0x3e2ef5e2	0.17085984
63	0xbd191e97	-0.03738269
64	0x3e295b16	0.16538653
65	0x3ca102a4	0.01965458
66	0x3e28dee7	0.1649128
67	0x3e5f2fb6	0.21795544
68	0x3e338768	0.17532122
69	0x3c3c50cc	0.011493873
70	0xbca27f98	-0.019836232
71	0x3e1b5b61	0.15171577
72	0xbdb441fa	-0.088016465
73	0xbd8794ad	-0.066201545
74	0x3ca21398	0.019784734
75	0xbc699a50	-0.014257982
76	0x3e6e45bf	0.23268794
77	0x3e434de4	0.19072682
78	0x3e6e75bd	0.23287101
79	0xbcf2d99d	-0.029644782
80	0x3eb9389e	0.36176008
81	0xbd42d54d	-0.0475667
82	0x3e7e4d84	0.24834257
83	0x3b01fc29	0.0019834137
84	0x3e042dc5	0.12908085
85	0x3e7f316e	0.249212
86	0x3e5873e6	0.21137962
87	0x3e25194f	0.16122936
88	0xbd167167	-0.036729243
89	0x3e0133ed	0.12617464
90	0xbe80fb31	-0.25191644
91	0x3e38d3a7	0.18049489
92	0xbc6c8664	-0.014436338
93	0x3d76016d	0.060059953
94	0xbcf31f64	-0.029678054
95	0xbec2cfa7	-0.3804905
96	0x3da776bb	0.08176943
97	0x3e2cbd0e	0.16868994
98	0x3e876c68	0.26449895
99	0xbd254205	-0.040346164
100	0xbcaf09e3	-0.021367019
101	0x3eb9a86b	0.36261305
102	0xbbe49ef0	-0.0069769546
103	0x3df216e2	0.11820771
104	0xbe1f1b8b	-0.1553785
105	0xbedc8279	-0.43068293
106	0x3cff42fc	0.03115987
107	0xbd4fb6e5	-0.05071153
108	0x3ce90efc	0.028449528
109	0x3ea6b1ba	0.3255747
110	0x3ca41d54	0.020033516
111	0x3ccede3e	0.025252458
112	0xbea7acff	-0.32749173
113	0xbdfe47e9	-0.124160595
114	0x3eaace35	0.33360448
115	0x3df3d929	0.119066544
116	0xbd08105f	-0.033218738
117	0x3d7f68c2	0.062355764
118	0x3eb72ff3	0.3577877
119	0x3e2f1ddc	0.17101234
120	0x3c8f4f7b	0.017493954
121	0xbd4c44ea	-0.04987041
122	0x3e376a9e	0.17911765
123	0x3dedc26f	0.11609351
124	0x3e63a2ec	0.22230119
125	0x3d52eff1	0.051498357
126	0x3eb2ccb5	0.34921804
127	0x3e211130	0.15729213
128	0x3db71375	0.08939258
129	0xbd4a85bb	-0.04944394
130	0x3e45e517	0.19325672
131	0x3d3b1ac5	0.045679826
132	0x3e98ef15	0.29869905
133	0xbd7b2afa	-0.061320283
134	0x3ccfd0e0	0.025368154
135	0x3e438103	0.19092183
136	0x3bb701ef	0.0055849473
137	0x3e4eceee	0.20196125
138	0x3e2d6000	0.16931152
139	0x3e9e7251	0.30946591
140	0xbd83b0f8	-0.064302385
141	0xbed4d7a5	-0.41570774
142	0x3e38f241	0.18061163
143	0x3e140da6	0.14458331
144	0x3e2c05d0	0.16799092
145	0x3e975a36	0.29561013
146	0xbda364a8	-0.07978183
147	0xbf034fcf	-0.51293653
148	0x3e69374c	0.22775
149	0x3e6d9fbf	0.2320547
150	0x3e8c5cad	0.27414456
151	0x3e5e93f1	0.21736123
152	0xbee2128d	-0.44154778
153	0xbcc801ee	-0.024414983
154	0x3eb3af36	0.35094613
155	0x3e1f6d25	0.15568979
156	0xbebcb8b3	-0.36859664
157	0x3d765cd3	0.060147118
158	0x3dcbf739	0.09959263
159	0x3c9ecf77	0.019386036
160	0x3d7b1894	0.061302736
161	0xbd8a924d	-0.06766186
162	0xbd88d7fc	-0.06681821
163	0x3e07d11b	0.13263361
164	0xbb54d9c7	-0.0032478438
165	0x3d6ebc08	0.05828479
166	0x3c5951b1	0.013264106
167	0x3e84ab7c	0.25912082
168	0x3d640022	0.05566419
169	0xbf30363f	-0.6883277
170	0x3e018985	0.12650116
171	0x3de8ec46	0.113731906
172	0x3dac2c78	0.08406919
173	0x3d739035	0.0594637
174	0x3b012030	0.0019703023
175	0x3e1c277a	0.15249434
176	0x3e34deb7	0.17663084
177	0x3dd48ec3	0.10378792
178	0xbedb16cc	-0.4279083
179	0x3dcee22f	0.10101735
180	0xbce1165d	-0.027476484
181	0x3e1a29e4	0.15055043
182	0x3e46bb3d	0.19407363
183	0x3cd42e38	0.025900945
184	0x3e735e0b	0.23766343
185	0x3da7bd92	0.081904545
186	0x3e9109a8	0.2832768
187	0xbd918f3d	-0.07107399
188	0x3d5e15e2	0.054220088
189	0xbd6a70d6	-0.057236515
190	0xbd27506f	-0.04084819
191	0xba81384d	-0.0009858698
192	0x3dd0553d	0.10172508
193	0xbd37cb0c	-0.044871375
194	0x3ea35791	0.31902745
195	0xbcce31f4	-0.025170304
196	0x3dbc482b	0.091934524
197	0x3e669633	0.22518234
198	0x3e29130a	0.16511169
199	0xbdd4c09f	-0.10388302
200	0x3d36f899	0.044670675
201	0x3e981748	0.29705262
202	0x3ec781d6	0.38966244
203	0x3e4f1084	0.20221144
204	0xbd98ba18	-0.074573696
205	0x3e202ff3	0.15643291
206	0x3dc0e4e4	0.094186574
207	0x3de480f2	0.11157407
208	0x3d53f3b6	0.051746093
209	0x3e34ffd8	0.17675722
210	0x3b5743e7	0.003284687
211	0x3e51a6e1	0.20473816
212	0x3e9d23d0	0.30691385
213	0x3e010a38	0.12601554
214	0x3da74e0e	0.081691846
215	0x3e5bf14c	0.21478766
216	0x3d0c3411	0.034229342
217	0xbdef386b	-0.11680683
218	0x3e0d8a1e	0.13822219
219	0x3df57ceb	0.11986717
220	0xbce81076	-0.028328162
221	0x3e869e4d	0.2629265
222	0xbd8436ca	-0.06455763
223	0x3df292b4	0.11844388
224	0x3e97d3b1	0.29653695
225	0xbdab9cbb	-0.08379503
226	0x3efc5557	0.4928386
227	0x3d3bce3c	0.045850977
228	0x3dacbebf	0.084348194
229	0x3d326d4b	0.04356126
230	0xbb937572	-0.0045000846
231	0x3e847010	0.25866747
232	0x3c07b18d	0.0082820775
233	0x3e65ddde	0.22447917
234	0x3db0821e	0.08618568
235	0x3c261ccb	0.010138701
236	0x3cc3e22f	0.023911564
237	0xbda30b49	-0.07961137
238	0xbe2d6a0d	-0.16934986
239	0x3ed4b4ba	0.41544133
240	0x3d1677f1	0.03673548
241	0x3e8f496f	0.27985713
242	0xbbc6623f	-0.0060541923
243	0x3ed169ab	0.4090093
244	0x3d3396ea	0.043845095
245	0x3d5eed27	0.054425385
246	0xbd75ad92	-0.059979983
247	0xbcee1303	-0.0290618
248	0x3df72564	0.120676786
249	0x3e217be5	0.15769918
250	0xbe15511d	-0.14581724
251	0x3e6a7b3d	0.22898574
252	0x3ea6aee7	0.32555315
253	0xbed99da7	-0.42503092
254	0x3d03960a	0.03212551
255	0x3d0f3ca8	0.034969956

base_model.model.bbox_predictor.layers.1.weight f4 [256, 256]
0	0x3d5f33e3	0.054492842
1	0x3cc1733e	0.023614522
2	0xbdc6f96d	-0.09715543
3	0x3b8fc1d8	0.0043871216
4	0x3d099495	0.033588964
5	0x3c2d05d1	0.010560469
6	0x3bdd0f5c	0.0067462157
7	0xbd192109	-0.03738502
8	0x3c4092b3	0.011753726
9	0x3e8f5af5	0.27999082
10	0x3d6188af	0.055061992
11	0xbb7aff5b	-0.0038299176
12	0x3bced196	0.0063116057
13	0x3c294fa0	0.0103339255
14	0x3c1100bb	0.008850272
15	0x3ceda389	0.029008644
16	0x3c1b54e8	0.009480692
17	0xbe7aa2e7	-0.24476205
18	0xbd013be9	-0.031551275
19	0x3d44e616	0.04807099
20	0x3ce9798f	0.028500346
21	0x3d0e1f5e	0.034697883
22	0xbe744aef	-0.2385671
23	0x3b811ead	0.0039404244
24	0xbd86638f	-0.06561958
25	0x3d655ba0	0.055995584
26	0x3ce2c5d6	0.027682226
27	0x3ba1581a	0.0049238326
28	0xba1c824a	-0.00059703423
29	0x3d8b0acf	0.06789171
30	0x3d0dc9ba	0.03461621
31	0xbd64c2fe	-0.05585002
32	0x3d578f1f	0.052626725
33	0x3c999942	0.018749837
34	0xbc24ca36	-0.0100579765
35	0x3d9b431c	0.075811595
36	0x3c13711a	0.0089991335
37	0x3d825401	0.06363679
38	0x3a1c86f1	0.00059710356
39	0x3c483907	0.012220628
40	0xbed8f003	-0.42370614
41	0xbbd60435	-0.0065312632
42	0x3ad20bb9	0.0016025222
43	0x3d1f3c90	0.038876116
44	0x3b1d9b7f	0.0024048982
45	0xbe0f0aad	-0.13968916
46	0x3cbe8579	0.023257004
47	0x3d3afa04	0.04564859
48	0xbebbe6d3	-0.36699542
49	0xbbf4ca23	-0.0074703856
50	0x3c6ade94	0.014335293
51	0xbe65a6c6	-0.224269
52	0xbedfd6b7	-0.43718502
53	0x3b597c54	0.0033185678
54	0x3d9c0974	0.076189905
55	0xbee0f390	-0.43935823
56	0xbcbc0f07	-0.022956384
57	0xbd0f0fe5	-0.034927268
58	0x3d406ab2	0.046976753
59	0x3d0abe60	0.033872962
60	0xbe0a50a4	-0.13507324
61	0xb9899651	-0.0002624267
62	0x3dac3cf1	0.08410061
63	0x3ddab7a1	0.10679556
64	0xbc123f87	-0.008926279
65	0x3c0f1964	0.008734081
66	0x3bddbeb0	0.0067671165
67	0xbd867165	-0.06564597
68	0xbd3a7f0c	-0.045531318
69	0xbbaaf155	-0.0052167573
70	0xbc12d954	-0.008962948
71	0xbc8410c4	-0.016121276
72	0x3dc10dfd	0.09426496
73	0xbc8f8f53	-0.017524397
74	0x3cef8c3c	0.029241674
75	0x3d544c88	0.0518308
76	0x3c476803	0.012170794
77	0x3dd5e4cc	0.1044403
78	0x3ca3a520	0.019976199
79	0xbc9b48d0	-0.018955618
80	0x3a411678	0.0007365714
81	0xbcefe8de	-0.029285844
82	0x3d034a24	0.032053128
83	0x3b79c6f8	0.003811298
84	0xbbadac96	-0.005300115
85	0xbdb82175	-0.089907564
86	0x3b395933	0.0028281927
87	0x3db7e71a	0.08979626
88	0xbc5356f4	-0.012899149
89	0x3cdf31f7	0.027245505
90	0x3c50e502	0.012749912
91	0x3ec3b52f	0.3822417
92	0x3c770376	0.015076509
93	0x3c2dcfe7	0.01060865
94	0xbd480df5	-0.048841435
95	0x3d30c63e	0.04315781
96	0x3cc2ac49	0.023763793
97	0xbb94f056	-0.004545252
98	0x3d155db3	0.03646631
99	0xbc2ee3d4	-0.010674436
100	0x3b948f51	0.004533686
101	0x3d7a6037	0.061126914
102	0xbc9698e3	-0.018383449
103	0x3bde4b99	0.0067839143
104	0x3e15bc64	0.14622647
105	0x3d03067f	0.031988617
106	0x3d9d5603	0.07682421
107	0xbe0437d5	-0.12911923
108	0x3c886379	0.016648995
109	0x3bb2147d	0.0054345713
110	0x3d90b85f	0.07066416
111	0x3bd76ada	0.006574017
112	0x3cb8659b	0.022509387
113	0x3c460749	0.012086698
114	0x3abad490	0.0014254022
115	0xbc9e21f4	-0.0193033
116	0xbd07abf0	-0.033122957
117	0x3ccddd95	0.025130073
118	0xbcca3c1b	-0.024686864
119	0x3c168fe8	0.009189583
120	0x3bcac27a	0.006187734
121	0x3ea8fd70	0.33005857
122	0x3beaa35e	0.007160588
123	0x3c4d4501	0.012528659
124	0xbe16733e	-0.14692399
125	0x3c6dce3c	0.014514502
126	0xbd4112b2	-0.04713697
127	0xbe3b18f1	-0.18271233
128	0x3da07cee	0.078363284
129	0xbc92b0a5	-0.017906496
130	0xbc859cf3	-0.01631019
131	0x3cccab0c	0.024983905
132	0xbc02cd93	-0.007983583
133	0x3c6ff7ea	0.01464651
134	0x3da4b4b4	0.08042279
135	0xbbb986ee	-0.005661837
136	0x3c82aa56	0.015950363
137	0x3d107238	0.035265177
138	0x3d1a970f	0.037741717
139	0x3caa195e	0.02076405
140	0x3d6e84de	0.05823218
141	0x3c2b3e27	0.01045183
142	0x3d9b2ac8	0.07576519
143	0xbc6f1bbe	-0.014594017
144	0x3d87d3b3	0.06632175
145	0xbea75811	-0.32684377
146	0x3c6ef794	0.014585394
147	0xbb857565	-0.0040728324
148	0x3d0f3443	0.03496195
149	0x3b6d4306	0.003620328
150	0x3bd22c8e	0.0064140027
151	0x3dab9f34	0.08379975
152	0x3d856d6b	0.065150104
153	0xbc6a5346	-0.0143020805
154	0x3c7f378c	0.015577208
155	0x3d076497	0.033054914
156	0xbe5bfa01	-0.21482088
157	0x3d42b3e7	0.04753485
158	0x3ae4815d	0.0017433573
159	0x3c4ed37d	0.012623665
160	0x3c80f338	0.015740976
161	0x3cb61aeb	0.022229632
162	0x3b47b0ee	0.0030470449
163	0x3d0cbcc7	0.03435972
164	0x3de5a857	0.11213749
165	0x3d13489b	0.035957914
166	0xbcc32af8	-0.0238242
167	0x3b889b57	0.0041689086
168	0x3c1157e2	0.008871051
169	0x3cd95381	0.026529076
170	0x3bc2af72	0.005941325
171	0xbd9d7ca4	-0.07689789
172	0x3c3e8910	0.011629358
173	0xbe3aff77	-0.18261515
174	0xbdfe3405	-0.12412266
175	0xbc3c09ff	-0.011476993
176	0x3b6bba0c	0.0035969047
177	0x3d6a0c84	0.057140842
178	0xbd2faa60	-0.04288709
179	0xbe111181	-0.14166833
180	0x3d917312	0.07102026
181	0xbc455d68	-0.012046196
182	0xbe1a615a	-0.15076199
183	0xbe62c744	-0.22146326
184	0x3c5b1dca	0.0133738015
185	0xbeadce60	-0.33946514
186	0x3d141b32	0.036158748
187	0x3bfdcb29	0.007745166
188	0x3cd3f05a	0.025871444
189	0x3c8bea5b	0.017079523
190	0x3e10e13d	0.14148422
191	0x3d1726bf	0.036902186
192	0x3d0d7348	0.03453377
193	0x3a927f5d	0.0011176873
194	0x3d5a745e	0.053333633
195	0x3d913ac3	0.07091286
196	0x3dbab40d	0.09116373
197	0x3caadbcd	0.020856762
198	0xbce85ca6	-0.02836449
199	0x3e16d228	0.14728606
200	0x3d06ce16	0.032911383
201	0x3d451884	0.048119083
202	0xbd028749	-0.0318673
203	0x3d402af8	0.04691598
204	0x3c1cd973	0.009573328
205	0x3c7d4463	0.015458199
206	0xbdb51898	-0.088425815
207	0x3b155153	0.0022784069
208	0x3c2e317e	0.010631917
209	0xbe0d6fba	-0.13812152
210	0x3cef59c5	0.02921761
211	0xbd93c959	-0.072161384
212	0x3c660a4e	0.014040543
213	0x3d0abc3d	0.033870924
214	0x3cb0c156	0.021576565
215	0x3c75b8f3	0.014997709
216	0x3c30d2a5	0.010792409
217	0x3d377421	0.044788484
218	0x3ba192e7	0.004930842
219	0xbdda8b31	-0.1067108
220	0xbd0ad0b5	-0.033890445
221	0xbd1aff4b	-0.037841123
222	0xbe0e3c42	-0.13890174
223	0x3b156852	0.0022797775
224	0x3befff34	0.0073241238
225	0xbdc150dd	-0.094392516
226	0xbdcf2b39	-0.10115666
227	0xbea2375f	-0.3168287
228	0x3be1f3cc	0.006895518
229	0x3b251071	0.0025186802
230	0x3e0ba2a1	0.13636257
231	0x3c81bfca	0.015838522
232	0x3c170ace	0.009218885
233	0x3d9a2c61	0.07527996
234	0xbd1b3ecc	-0.037901685
235	0x3bb0ea75	0.005399043
236	0x3e594216	0.21216616
237	0x3cda2fdd	0.026634151
238	0x3d5eceb6	0.054396354
239	0xbceeac57	-0.029134912
240	0x3de5aa60	0.11214137
241	0xbcd849d7	-0.026402397
242	0xba74f5f2	-0.000934451
243	0xbc863353	-0.016381895
244	0x3c18f963	0.009336802
245	0x3b70d179	0.003674595
246	0x3d150d53	0.03638966
247	0x3c8c3a3a	0.017117608
248	0x3c809b0e	0.015698936
249	0x3c9db02b	0.019249042
250	0x3ce85219	0.02835946
251	0xbc99382d	-0.018703545
252	0x3c55098e	0.013002766
253	0x3cdf3f2e	0.027251806
254	0x3b6752c1	0.0035297128
255	0xbe98d7f9	-0.29852274

base_model.model.bbox_predictor.layers.2.bias f4 [4]
0	0x3ce2316d	0.027611459
1	0x3c224847	0.009904928
2	0x3d62ac02	0.05533982
3	0xbe0a0908	-0.13480008

base_model.model.bbox_predictor.layers.2.weight f4 [4, 256]
0	0x3c4dc63e	0.012559472
1	0x3db7429b	0.08948251
2	0xbd86cb68	-0.065817654
3	0x3c0714e0	0.008244723
4	0x3e0d1726	0.13778362
5	0x3c78593e	0.015157996
6	0x39072a16	0.00012890282
7	0x3bb2354f	0.005438484
8	0xbd061e79	-0.032743905
9	0x3d4145a8	0.04718557
10	0x3cda59a3	0.02665407
11	0x3c6aa2d9	0.0143210525
12	0x3d18c271	0.03729481
13	0x3b0ed726	0.002179572
14	0xbbbabb57	-0.005698602
15	0x3cab590b	0.020916482
16	0x3d691d63	0.05691279
17	0xbc600824	-0.013673816
18	0x3bc1661e	0.005902066
19	0x3b665418	0.0035145339
20	0x3d2cdaaf	0.04220074
21	0xb9838d3b	-0.00025091492
22	0xbe18dfc6	-0.14929113
23	0x3bf01382	0.0073265443
24	0x3c35c9ac	0.011095446
25	0x3c043d03	0.008071187
26	0xbc0a4ad8	-0.008440696
27	0x3ca75247	0.020424975
28	0x3c6134c0	0.013745487
29	0x3c20aae4	0.0098063685
30	0xbcd8b2c7	-0.026452435
31	0x3af24bde	0.0018485745
32	0x3c9655f9	0.018351542
33	0xbd355df5	-0.044279058
34	0x3d55eff8	0.052230805
35	0xbd0fc564	-0.035100356
36	0x3d05234a	0.032504357
37	0x3b956f5d	0.0045603947
38	0x3d61940f	0.05507284
39	0x3b67d23e	0.0035373117
40	0x3cbd1248	0.023080006
41	0x3bb48983	0.0055095567
42	0xbaf65ae4	-0.0018795398
43	0x3a2aeb52	0.0006520051
44	0x39fc9ad3	0.0004818054
45	0x3cdd6854	0.027027287
46	0xbc8f4de3	-0.017493194
47	0x3e03883a	0.12844935
48	0x3d691fa7	0.05691495
49	0x3cf9edc4	0.030508883
50	0x3ba46b96	0.005017708
51	0x3c271110	0.010196939
52	0xbc4cde3e	-0.012504159
53	0xba26d293	-0.00063637755
54	0x3bc19ec2	0.005908818
55	0x3b8b51d0	0.004251696
56	0x3bb67be3	0.0055689677
57	0x3c88547b	0.016641846
58	0x3a941a18	0.001129928
59	0xbcd585e6	-0.026064824
60	0x3bcbe97d	0.0062229023
61	0xba93a574	-0.0011264519
62	0x3d53c23e	0.051698916
63	0x3bf2d204	0.0074102897
64	0x3d7b969a	0.06142292
65	0x3b9f081b	0.004853261
66	0x3c097e44	0.0083919205
67	0x3be13765	0.0068730586
68	0x3bcdbca0	0.0062785894
69	0xbd2f314a	-0.042771615
70	0x3af36796	0.00185703
71	0x3bf3d0a3	0.007440643
72	0x3d3e75bb	0.046498995
73	0x3c0de6e3	0.008661005
74	0x3a579201	0.00082233554
75	0x3c4e82a3	0.012604388
76	0xbc9b7ea3	-0.018981284
77	0x3bd46bc9	0.0064825756
78	0x3e229c06	0.1587983
79	0xbc83e4e3	-0.016100353
80	0x3c3e37d4	0.01160999
81	0x3c0c0c50	0.008547857
82	0x3c21fefb	0.009887452
83	0xbc00deac	-0.007865589
84	0x3bc2e48e	0.005947656
85	0x3c01ac5c	0.007914629
86	0x3c009c5b	0.007849778
87	0x3bb5f108	0.005552415
88	0x3b51c3bf	0.0032007543
89	0x3caacb44	0.020848878
90	0x3b87e84c	0.004147565
91	0x3c304da9	0.010760703
92	0x3c712e7e	0.014720557
93	0x3cc36516	0.023851912
94	0x3bbf283b	0.0058336533
95	0xbc3e2702	-0.01160598
96	0x3b9a4f15	0.0047091343
97	0x3dfeb250	0.12436354
98	0x3c0a45c2	0.008439483
99	0xba8714f8	-0.0010305932
100	0x3b94cecc	0.0045412537
101	0xbcbbd551	-0.022928866
102	0x3a710c98	0.0009195297
103	0x3cbc971c	0.023021273
104	0x3c421471	0.011845694
105	0x3c7a7990	0.015287772
106	0xbd6874cf	-0.056752022
107	0x3c743da7	0.014907277
108	0xbaecb46d	-0.0018059142
109	0xbe1c28d6	-0.15249953
110	0xbb89a01f	-0.004199996
111	0x3e3b91ca	0.18317333
112	0x3bc71d0c	0.0060764607
113	0x3ddda44c	0.10822353
114	0xbdaeaac4	-0.08528665
115	0x3abb7e82	0.001430467
116	0x3b15ec87	0.0022876577
117	0x3c873626	0.016505312
118	0xbdfdf2e4	-0.12399843
119	0xbc0abc64	-0.008467767
120	0x3a05e1d6	0.00051071995
121	0x3d9705ac	0.07374129
122	0x3c905450	0.017618328
123	0x3bbfdd11	0.0058552106
124	0x3bb1a974	0.0054218117
125	0x3c06e772	0.008233892
126	0x3bf1a871	0.007374816
127	0x3c94012c	0.018066965
128	0xbc755dcd	-0.014975977
129	0xbc0d979a	-0.008642102
130	0x3b994462	0.0046773413
131	0x3c87f1f6	0.016594868
132	0x3c0d6cac	0.008631866
133	0x3c3d27a6	0.011545097
134	0x3b2e0ae8	0.0026556794
135	0x3d016457	0.031589832
136	0xbb58ceea	-0.0033082315
137	0xbdcb4f1c	-0.09927198
138	0x3c3c01d0	0.0114750415
139	0x3c062f80	0.008190036
140	0x3c6b689b	0.014368202
141	0x3bc348ae	0.005959592
142	0xbd847c96	-0.064690754
143	0x3c555002	0.013019564
144	0x3c4c77fd	0.012479779
145	0x3d517471	0.051136438
146	0x3aacc0dd	0.0013180036
147	0x3d146ee0	0.03623855
148	0x3b1816d5	0.0023206968
149	0x3c5c5274	0.013447393
150	0xbce27c0b	-0.027647039
151	0x3d325cde	0.043545596
152	0xbd4a6a80	-0.049417973
153	0x3a4c5896	0.0007795183
154	0x3bb4777f	0.005507409
155	0xbe126ee8	-0.1430012
156	0x3bd92b11	0.0066274484
157	0x3ce73d74	0.028227545
158	0x3bb709cb	0.005585884
159	0xbaee853d	-0.0018197667
160	0x3c1f6466	0.009728527
161	0xbc816194	-0.0157936
162	0xbc25a347	-0.010109729
163	0x3ba0d2e7	0.004907954
164	0x3d1f93a4	0.03895916
165	0x3b81aca0	0.003957346
166	0xbac79855	-0.0015227894
167	0x3c220dfe	0.009891031
168	0x3bbc373b	0.0057438887
169	0xbd89c14d	-0.06726322
170	0x3c0ca6b2	0.008584665
171	0x3cf8406b	0.030304154
172	0x3b3196be	0.0027097906
173	0x3c06ae15	0.008220215
174	0xbc9897b4	-0.018627025
175	0x3b372122	0.0027943333
176	0x3c14487a	0.009050483
177	0x3b41dadc	0.0029579913
178	0x3b643ea4	0.0034827376
179	0x3ba60532	0.0050665373
180	0xbd83ad9d	-0.064295985
181	0x3cdf3ce9	0.027250724
182	0xbcb45533	-0.022013282
183	0x3cc6d743	0.024272567
184	0x3d223d30	0.039609134
185	0x3bdb3c1b	0.0066905147
186	0x3bc9cca4	0.0061584283
187	0x3b194c6a	0.0023391494
188	0x3abdfc38	0.0014494723
189	0xbae7ea69	-0.0017693761
190	0x3ac2aa0a	0.0014851701
191	0x39d91bd7	0.00041410208
192	0x3d3b5178	0.04573199
193	0xbc6728be	-0.014108835
194	0x3dbed2a8	0.09317523
195	0xbb9500f9	-0.004547235
196	0x3c59e657	0.013299546
197	0x3c5ddd41	0.013541521
198	0x3c78ac84	0.01517785
199	0x3bddbb67	0.006766725
200	0x3a18703f	0.0005815066
201	0xbcdb05ef	-0.026736228
202	0x3d47e123	0.04879869
203	0x3bc7547c	0.0060830694
204	0xbceef50d	-0.029169584
205	0x3b54c1c7	0.0032464133
206	0x3c2ae0af	0.010429545
207	0x3c39e35d	0.011345712
208	0x3b5ccd3c	0.0033691665
209	0xbd56928b	-0.052385848
210	0x3ba0244f	0.004887141
211	0x3c158bf7	0.0091276085
212	0x3bf46216	0.007457982
213	0x3d697bb5	0.05700274
214	0x3c28eb9f	0.010310083
215	0x3bf445b9	0.0074546007
216	0xbcb84dc8	-0.022498026
217	0x3cd71898	0.026256844
218	0x3c443760	0.011976093
219	0x3b72138f	0.0036937927
220	0x3ccb1ad1	0.02479306
221	0xbc0ba8ab	-0.0085241
222	0xbc2c5316	-0.010517856
223	0x3bf30558	0.0074164085
224	0x3d0534f5	0.032521207
225	0xbb4d9a57	-0.0031372511
226	0x3d8aabd6	0.06771056
227	0xbc80330e	-0.015649345
228	0xbd8d3dbb	-0.0689654
229	0x3c74c717	0.014940045
230	0x3c396681	0.011315943
231	0x3be1bed6	0.0068892045
232	0x3c457e2d	0.012054008
233	0x3c5feb26	0.013666904
234	0x3b56f56f	0.0032800098
235	0xbd07e239	-0.033174727
236	0xbc13590c	-0.008993398
237	0x3e135daa	0.14391199
238	0xbc36c9df	-0.011156528
239	0x3c13ef90	0.009029284
240	0x3cb9b9c7	0.022671593
241	0x3d1d8ecc	0.03846626
242	0xbb512175	-0.003191081
243	0x3c1a5fe7	0.009422279
244	0x3b4b2e38	0.003100289
245	0x3c96c960	0.01840657
246	0x3d27ed31	0.040997688
247	0x3c61e10a	0.013786564
248	0x3bd77c76	0.006576116
249	0x39e081d6	0.00042821345
250	0x3b9ba428	0.0047497936
251	0x3c790e7b	0.015201206
252	0xbcb4e4b7	-0.022081716
253	0x3bf0024e	0.0073244935
254	0xbd2f589e	-0.04280912
255	0x3d0ff186	0.035142444

base_model.model.class_labels_classifier.bias f4 [13]
0	0xbcc3b758	-0.023891136
1	0xbc9071d6	-0.017632406
2	0x39834ddc	0.00025044277
3	0xbb23f95b	-0.0025020454
4	0xbc992562	-0.018694583
5	0xbc274942	-0.010210337
6	0xbcbe23ca	-0.023210425
7	0xbc3d8533	-0.011567402
8	0xbc9c6a0a	-0.019093532
9	0xbcbc0af7	-0.022954447
10	0xbcc00d5f	-0.023443876
11	0xbc6c083c	-0.01440626
12	0x3cbcae7e	0.023032423

base_model.model.class_labels_classifier.weight f4 [13, 256]
0	0x3c247e0e	0.010039819
1	0x3cc38e90	0.02387169
2	0x3c3d5e64	0.011558149
3	0x3ae53164	0.0017486033
4	0xbc7e9f9e	-0.015540985
5	0x3c00418a	0.007828126
6	0xbc1d4eee	-0.009601338
7	0x3b87b000	0.004140854
8	0xbd382c02	-0.044963844
9	0xbd0701c2	-0.03296066
10	0xbd71ea8a	-0.059061565
11	0xbc6f38c7	-0.014600939
12	0xbbd6f9d5	-0.006560544
13	0x3c2dccac	0.01060788
14	0x3d07a0f6	0.03311249
15	0xbcc521c9	-0.024063962
16	0xbccbd29b	-0.024880698
17	0xbd374fb3	-0.04475374
18	0xbc8957f9	-0.016765581
19	0xbc875f1b	-0.016524842
20	0xbc2527b4	-0.010080267
21	0xbc2a0123	-0.010376248
22	0xbcc2cdc3	-0.023779755
23	0x3cb55dfd	0.022139544
24	0xbc199790	-0.009374514
25	0xbd0cf05e	-0.03440892
26	0xbc1d0195	-0.009582897
27	0xbc6ad3bc	-0.014332708
28	0xbbbaf9c6	-0.005706045
29	0x3a1b5bbd	0.0005926451
30	0xbd1d6c98	-0.03843364
31	0x3ceac2a6	0.028657269
32	0x3d9d7929	0.07689125
33	0x3cc0ffd7	0.023559494
34	0xbd8b3c00	-0.067985535
35	0xbd065b08	-0.032801658
36	0x3cd704c1	0.026247384
37	0x3d0498ed	0.032372404
38	0x3a33a09a	0.00068522396
39	0xbc853e2b	-0.016264996
40	0xbd335457	-0.043781605
41	0x3c616f36	0.013759425
42	0x3d41ac2d	0.04728334
43	0x3d3a63b5	0.045505244
44	0x3c49da64	0.012320135
45	0x3c94c762	0.01816148
46	0x3d3b73c4	0.0457647
47	0xbb9177d6	-0.0044393344
48	0xbc332f95	-0.010936637
49	0x3cb0480a	0.021518726
50	0x3aa2610a	0.0012388539
51	0xbc15fa52	-0.009153919
52	0x3d75b2a6	0.059984826
53	0x3b5ae92d	0.0033403144
54	0xbc9f1cc0	-0.019422889
55	0xbcefb03b	-0.029258838
56	0x3cea0586	0.028567087
57	0x3c68b378	0.014202945
58	0xbc58baa5	-0.013228093
59	0xbc2806c7	-0.010255522
60	0xbcd36d25	-0.02580888
61	0x3d01acc9	0.03165892
62	0xbd10fc1e	-0.035396688
63	0x3b61082c	0.0034337146
64	0x3c2bef15	0.010494013
65	0xbba6ceb6	-0.00509056
66	0x3ccdb012	0.02510837
67	0x3c423e0d	0.011855614
68	0xbd49cbf6	-0.049266778
69	0x3cb59eaf	0.022170393
70	0x3c24cef8	0.010059111
71	0x3d62f066	0.055405043
72	0x3cb16416	0.02165417
73	0x3c9e1c56	0.019300621
74	0xbd2a2664	-0.04154052
75	0x3bb6e7bd	0.0055818246
76	0x3ca901bd	0.020630712
77	0x3ad1176e	0.0015952417
78	0xbcfaafc1	-0.030601384
79	0xbc731b2f	-0.014838024
80	0xbccf8432	-0.02533159
81	0xbd2d2f2f	-0.042281326
82	0x3d15d49c	0.036579713
83	0xbb9f1f40	-0.00485602
84	0x3cc407c9	0.023929494
85	0x3a908239	0.0011025138
86	0x3d28f03d	0.041244734
87	0xbd0991b2	-0.03358621
88	0xbd111f43	-0.035430204
89	0xbd5ea848	-0.054359704
90	0xba0d12f4	-0.00053815474
91	0xbc851636	-0.016245943
92	0xbc48702e	-0.012233777
93	0xbd4f73d6	-0.05064758
94	0xbd39a4bb	-0.045323115
95	0xbd11c8d0	-0.0355919
96	0xbc57c8fc	-0.013170477
97	0x3b5de6d1	0.00338595
98	0xbd0304a1	-0.031986836
99	0x3bcee06a	0.0063133733
100	0xbd40c55f	-0.047063228
101	0xbc365500	-0.011128664
102	0x3cb83652	0.02248684
103	0xbb0a130e	-0.0021068486
104	0x3d337619	0.0438138
105	0xbd047e64	-0.032347098
106	0xbc796aa0	-0.015223175
107	0x3c3c1936	0.01148062
108	0xbc5d5ff3	-0.013511646
109	0xb84b2b93	-4.8439553e-05
110	0xbad60921	-0.0016329625
111	0xbc943bda	-0.018094946
112	0xbc04e4a8	-0.0081111565
113	0xbcc32079	-0.023819195
114	0x3bb6c532	0.0055777067
115	0xbc628642	-0.013825955
116	0xbb80553b	-0.0039164103
117	0xbd0df046	-0.03465297
118	0xbd864b72	-0.06557359
119	0x3c233549	0.009961435
120	0xbd33485f	-0.04377019
121	0xbd01c1f0	-0.031679094
122	0xbcfb5c1f	-0.030683575
123	0xbd3e98a6	-0.046532296
124	0x3d5d7007	0.054061916
125	0x3cdb1d84	0.026747473
126	0x3c816769	0.01579638
127	0x3cd0fe53	0.025511896
128	0x3d343b26	0.04400172
129	0x3c789bb5	0.015173842
130	0x3caadd69	0.02085753
131	0xbd1b41c5	-0.03790452
132	0x3bcf6567	0.006329227
133	0xbc94e0f8	-0.01817368
134	0xb99047bd	-0.0002751927
135	0xbd19bb5e	-0.037532203
136	0x3ce44942	0.027866963
137	0xbba657e1	-0.005076394
138	0x3d088998	0.033334345
139	0xbd2508ea	-0.040291704
140	0x3d43180b	0.04763035
141	0x3c66aa6d	0.014078719
142	0xbd1cd4e2	-0.03828896
143	0x3cd39dbd	0.025832051
144	0x3c972e99	0.018454837
145	0x3c7da777	0.015481821
146	0xbc8192ff	-0.015817164
147	0x3c826e27	0.015921665
148	0xbba2d36a	-0.00496905
149	0x3d3542b7	0.044253077
150	0x3d047fdf	0.03234851
151	0xb9e623a7	-0.00043895582
152	0x3cd58c5b	0.026067903
153	0x3b1dcad7	0.00240772
154	0xbd1004b9	-0.035160754
155	0x3d2d4940	0.042306185
156	0x3d55ab3e	0.052165262
157	0xbd1cad59	-0.038251255
158	0x3d4e45b7	0.050359454
159	0xbcc56722	-0.02409703
160	0x3ca46b84	0.020070799
161	0x3d0b9512	0.03407771
162	0xbcaf009e	-0.021362599
163	0xbd0c9517	-0.03432187
164	0xbce2db30	-0.027692407
165	0xbd0bbd56	-0.03411611
166	0x3cdae770	0.026721686
167	0x3c6afc4a	0.014342377
168	0x3d0d097d	0.034432877
169	0x3c8fe59d	0.017565543
170	0xbcc0642e	-0.02348527
171	0x3cd9a29b	0.026566794
172	0xbd9054a9	-0.07047398
173	0xbc8bf513	-0.017084634
174	0xbd067e84	-0.0328355
175	0xbd782735	-0.060584266
176	0xbbf5945d	-0.007494493
177	0xbb08303c	-0.0020780703
178	0xbd07f396	-0.033191286
179	0x3c3de958	0.011591278
180	0xbab04465	-0.0013448118
181	0xbc4fe33f	-0.012688457
182	0xbc54fa06	-0.012999063
183	0xbd253bf1	-0.040340368
184	0x3ba80138	0.0051270984
185	0xbc94523e	-0.018105622
186	0x3cbe90da	0.02326243
187	0x3c9cfa3f	0.019162295
188	0xbcc6554c	-0.024210595
189	0xbca48af5	-0.020085791
190	0xbd692924	-0.056924
191	0xbce88c54	-0.028387226
192	0x3ca684b2	0.020326946
193	0x3cca175f	0.024669347
194	0xbd8e7589	-0.06956012
195	0x3c1faec5	0.009746258
196	0x3d0a2362	0.03372515
197	0xbcc893e4	-0.024484582
198	0x3c522812	0.012826936
199	0x3c9fba17	0.019497914
200	0xbd5c3a71	-0.05376667
201	0xbce061ef	-0.027390448
202	0xbc96eca8	-0.018423393
203	0xbc57e276	-0.013176551
204	0xb9beeb31	-0.00036414855
205	0xbd21a9ae	-0.03946846
206	0x3c8ca040	0.017166257
207	0x3c8a02c6	0.016847026
208	0xbc8d5eb5	-0.017257074
209	0x3ce83a45	0.028348098
210	0x3c02831f	0.007965832
211	0x3d2c9ced	0.042141844
212	0xbd1627fa	-0.03665922
213	0x3c944101	0.018097403
214	0xbc88e2e9	-0.016709762
215	0x3d6b52a8	0.057451874
216	0xbd5f5b4c	-0.054530427
217	0x3ca54def	0.020178763
218	0x3caf0a68	0.021367267
219	0xbcb982ad	-0.022645319
220	0x3d1dd086	0.03852894
221	0x3bd881ea	0.006607284
222	0x3be3d631	0.006953024
223	0x3c380a31	0.011232899
224	0xbcbe681b	-0.023243
225	0xbcc33e0c	-0.023833297
226	0x3b58eacd	0.0033098937
227	0x3d0a0a1b	0.033701044
228	0x3c8923be	0.016740676
229	0xbb66a36c	-0.0035192622
230	0xbd211456	-0.039326034
231	0x3d03110f	0.03199869
232	0x3ce6c6fb	0.028171053
233	0xbd06f508	-0.032948524
234	0x3b82033b	0.0039676703
235	0x3b218d0f	0.0024650728
236	0xbc5d6469	-0.013512709
237	0x3b88f001	0.0041790013
238	0x3cb8fd3c	0.022581689
239	0xbbd6f087	-0.006559435
240	0xbc212425	-0.009835278
241	0x3bc2b5d6	0.0059420867
242	0xbc8a3dfc	-0.01687526
243	0xbb754cd1	-0.003742982
244	0x3d822e86	0.0635653
245	0x3d355625	0.044271607
246	0xbc4b006e	-0.012390239
247	0x3d3b8be3	0.045787703
248	0x3d0b856e	0.034062795
249	0x3c6cafcb	0.014446209
250	0xbb816f0e	-0.0039500063
251	0xbcb0d1ae	-0.021584358
252	0xbbcf2094	-0.0063210223
253	0x3c956948	0.018238679
254	0xbbe6904e	-0.0070362454
255	0x3d6d4157	0.05792364

base_model.model.model.decoder.layers.5.encoder_attn.out_proj.lora_A.weight f4 [1, 256]
0	0xbb65fa40	-0.0035091788
1	0xbd3ee953	-0.046609234
2	0x3d8ea650	0.06965315
3	0xbca5cab2	-0.020238254
4	0xbc4de2c5	-0.012566273
5	0x3d846e31	0.0646633
6	0x3c9cf657	0.019160433
7	0x3c92d07b	0.017921677
8	0x3cd4f207	0.025994314
9	0x3db4555f	0.08805346
10	0xbd800b2b	-0.0625213
11	0xbd2e733d	-0.04259037
12	0x3c164e28	0.009173907
13	0x3d0dcce8	0.034619242
14	0xbd951608	-0.07279593
15	0x3c7077e6	0.0146770235
16	0xbd96086c	-0.07325825
17	0x3d48da6b	0.049036425
18	0xbd01f95c	-0.03173195
19	0x3da93713	0.08262458
20	0xbb1d5fad	-0.0024013326
21	0xbd28d3b8	-0.041217536
22	0x3cc4dd21	0.024031224
23	0xbd66341e	-0.056202047
24	0x3d5133d9	0.051074836
25	0x3d0569fa	0.03257177
26	0x3da44ad5	0.080220856
27	0x3d21f3cb	0.03953914
28	0x3cfb2388	0.030656591
29	0x3bb9c00b	0.0056686453
30	0xbbae077c	-0.005310951
31	0x3d4c3afd	0.049860943
32	0x3bb584c0	0.0055395067
33	0x3d7c1b59	0.06154952
34	0x3da93bf1	0.08263386
35	0xbd6a1b50	-0.057154953
36	0x3d484f1e	0.048903577
37	0x3cedd856	0.029033821
38	0xbcbcc908	-0.023045078
39	0x3d4a9833	0.049461555
40	0x3bcd8ad4	0.006272653
41	0x3d106685	0.03525402
42	0x3d1cda4e	0.03829413
43	0xbc4ae98a	-0.012384782
44	0xbc5d632c	-0.013512414
45	0x3c54239d	0.012947944
46	0xbcf80bc4	-0.030279048
47	0x3c5e15de	0.013555018
48	0xbd7b91d6	-0.061418377
49	0x3c94b09a	0.018150616
50	0xbd5260a0	-0.05136168
51	0xbbe9ecf4	-0.0071388427
52	0xbcf4a2cc	-0.029862784
53	0x3d5409d0	0.05176717
54	0x3d1e40c4	0.038635984
55	0x3d9e129f	0.077183954
56	0xbd9b9abc	-0.075978726
57	0x3d83de5a	0.064388946
58	0xbd028166	-0.031861685
59	0xbd9d6d4f	-0.076868646
60	0xbd29b5e4	-0.04143323
61	0xbd46b1ce	-0.04850941
62	0xb83561ae	-4.3244734e-05
63	0xbd1fdf1a	-0.039031126
64	0x3d7f1cb9	0.06228325
65	0x3d350174	0.04419084
66	0xbd358ba9	-0.044322643
67	0xbdaaddd1	-0.08343089
68	0xbd6debea	-0.058086313
69	0x3d7dba41	0.061945204
70	0x3cca1244	0.024666913
71	0x3d932fbd	0.0718684
72	0x3c434e24	0.011920486
73	0x3d6d1809	0.05788425
74	0x3d293438	0.041309565
75	0x3abdb8b7	0.0014474605
76	0xbd0b2d74	-0.033978894
77	0xbc40f7f3	-0.011777866
78	0x3cf919a2	0.03040773
79	0x3c887dd4	0.016661562
80	0x3bf44adc	0.007455213
81	0xbd22c81f	-0.03974163
82	0x3cfe9e7d	0.031081432
83	0x3d868458	0.06568211
84	0xbd1cd1d2	-0.038286038
85	0xbcb98483	-0.022646194
86	0xbaeab2da	-0.0017906085
87	0xbd32ded3	-0.043669533
88	0x3d610ce8	0.05494395
89	0xbade829b	-0.0016976179
90	0x3cd9f3f5	0.026605586
91	0xbc61e179	-0.013786667
92	0x3ca030e6	0.019554567
93	0x3c6ed47f	0.01457703
94	0x3c47d25c	0.01219615
95	0x3d4a6fea	0.049423136
96	0xbcd56092	-0.026047025
97	0xbd997d46	-0.07494597
98	0x3d535b02	0.051600464
99	0xbd3c2486	-0.04593327
100	0x3d06e9e6	0.032937907
101	0x3c3351be	0.010944782
102	0x3cdff241	0.027337195
103	0xbbde7c6b	-0.006789734
104	0xbabd35aa	-0.0014435549
105	0x3d6ee6b1	0.058325473
106	0xbd2fd1a9	-0.042924557
107	0x3ca7bfe2	0.020477239
108	0x3d589cf0	0.052884042
109	0xbd80a65a	-0.06281729
110	0xbcc2c4d3	-0.023775494
111	0x3ce14002	0.027496342
112	0x3b13fc1b	0.0022580686
113	0xbcfd26ee	-0.030902352
114	0xbd29bbd6	-0.0414389
115	0xbc5dfd1f	-0.013549118
116	0xbc04922e	-0.008091493
117	0x3d7b35d8	0.061330646
118	0x3d7bd854	0.061485603
119	0xbca63f3b	-0.020293823
120	0x3cea6004	0.028610237
121	0x3d812d9b	0.06307527
122	0xbc61532a	-0.013752738
123	0x3c7413f5	0.014897336
124	0x3db88bbf	0.090110295
125	0xbc1b2b7b	-0.009470816
126	0x3da39226	0.0798686
127	0xbb6554a2	-0.0034993072
128	0x3c485124	0.012226377
129	0x3c889ce8	0.016676381
130	0x3b8c6609	0.0042846245
131	0x3d3ef201	0.04661751
132	0x3d62b708	0.055350333
133	0x3d4d71e4	0.050157443
134	0x3d0c42e8	0.034243494
135	0xbc826107	-0.015915407
136	0xbd454424	-0.048160687
137	0xbd3fedba	-0.046857573
138	0xbd91ad32	-0.071131125
139	0x3c99cc3c	0.018774144
140	0xbd0f5d9e	-0.03500139
141	0x3cc64f23	0.024207657
142	0x3b50fec3	0.003189013
143	0x3cbc2b9c	0.022970013
144	0x3d40d69d	0.04707967
145	0xbc8f7340	-0.01751101
146	0xbd929350	-0.07157004
147	0x3cd65c59	0.026167082
148	0x3d533340	0.051562548
149	0xbc3b730e	-0.011441005
150	0xbd318b28	-0.0433456
151	0xbcc393a5	-0.023874113
152	0x3d773bb6	0.06035968
153	0x3bf44d4a	0.0074555026
154	0xbb51fb57	-0.003204068
155	0xbccca3de	-0.024980482
156	0xbc9d7aee	-0.019223657
157	0xbb0e1614	-0.002168064
158	0xbd5d6607	-0.05405238
159	0x3db33f46	0.08752303
160	0xbc4e9d99	-0.012610816
161	0xbc3c8533	-0.011506367
162	0x3c82794c	0.01592698
163	0xbdad91ab	-0.084750496
164	0x3cf4367e	0.02981114
165	0xbc0da8c3	-0.008646193
166	0x3d84805d	0.06469796
167	0x3d24f5a9	0.040273342
168	0xbdb200d3	-0.086915635
169	0x3cb3adaa	0.021933395
170	0x3cdc79b2	0.026913498
171	0xbd59374e	-0.05303126
172	0x3d9784af	0.07398354
173	0x3c822b06	0.015889656
174	0x3be22438	0.0069012903
175	0xbd3679c2	-0.04454971
176	0x3cfee4c3	0.031114941
177	0x3ae32982	0.0017331096
178	0x3d17e8a0	0.037087083
179	0xbb86d8ae	-0.0041151857
180	0x3b88d8fc	0.004176257
181	0xbc88f8e7	-0.016720248
182	0xbd2b93aa	-0.04188887
183	0xbd18f860	-0.037346244
184	0xbcdf3588	-0.027247205
185	0x3cba72f6	0.022759896
186	0xbc53bd4e	-0.012923552
187	0x3da96fe1	0.08273292
188	0xbd1037e7	-0.035209563
189	0xbd39ec60	-0.04539144
190	0x3d019c37	0.03164312
191	0xbcf47bb3	-0.02984414
192	0x3d347436	0.04405614
193	0xba1d10d6	-0.00059915835
194	0xbd98bd92	-0.07458033
195	0xbaea5b70	-0.0017880034
196	0xbd2f1adc	-0.042750224
197	0x3be4e4dc	0.00698529
198	0xbce7e5ea	-0.028307874
199	0x3d129d04	0.035794273
200	0x3d2767a2	0.040870316
201	0xbc543cd5	-0.012953957
202	0xbcdf601d	-0.02726751
203	0xbb5147db	-0.0031933698
204	0x3d7929a6	0.060830735
205	0x3d092f31	0.03349227
206	0x3bd0480d	0.0063562454
207	0xbc6173e8	-0.013760544
208	0x3c40066c	0.011720281
209	0x3c783927	0.015150345
210	0xbd2ba37b	-0.041903954
211	0x3d844cae	0.06459938
212	0xbcfe6442	-0.031053666
213	0x3cab4fee	0.020912137
214	0xbd43addf	-0.04777324
215	0xbd449296	-0.047991358
216	0x3d81c457	0.06336277
217	0x3d28d89a	0.041222192
218	0x3d4a50e0	0.049393535
219	0x3d4820d3	0.04885943
220	0x3d49a2e0	0.049227595
221	0x3d6aff72	0.057372518
222	0x3c59a993	0.013285059
223	0xba318fef	-0.0006773462
224	0x3cd6f571	0.026240082
225	0xbd6dc1fd	-0.05804633
226	0x3d3dfc5b	0.046383243
227	0x3d490dca	0.049085416
228	0x3d66c386	0.05633881
229	0x3c828b41	0.015935542
230	0x3d1dedec	0.038556978
231	0xbc719c05	-0.014746671
232	0x3d484e9f	0.048903104
233	0x3c024fba	0.007953579
234	0x3d293e34	0.041319087
235	0xbcfde96e	-0.030995097
236	0xbd3331f8	-0.043748826
237	0x3b9347ba	0.0044946345
238	0x3bbdc4e0	0.0057912916
239	0x3d8b279f	0.067946665
240	0x3b7b594c	0.0038352786
241	0xbc8a4510	-0.016878635
242	0x3cdad686	0.02671362
243	0xbc07d2bb	-0.008289988
244	0xbd5edc67	-0.05440941
245	0xbc27b972	-0.010237085
246	0xbd98d2c9	-0.07462079
247	0x3d1da16c	0.038484022
248	0xbc65fbed	-0.014037115
249	0xbcd1579b	-0.025554469
250	0xbcae5b3c	-0.021283738
251	0xbcf02cdf	-0.029318271
252	0xbd9d7e50	-0.07690108
253	0x3d041b2d	0.03225248
254	0xbc75791d	-0.014982489
255	0xbce58ddf	-0.028021751
